…
/tasks/#112-requirements","title":"1.1.2. Requirements","text":"<ul> <li>Cifar dataset is loaded from tensorflow.keras.datasets.cifar10 and no stored data are required</li> </ul>"},{"location":"colearn/tasks/#12-models","title":"1.2. Models","text":""},{"location":"colearn/tasks/#121-cifar10conv-keras-model","title":"1.2.1. CIFAR10Conv Keras model","text":"<pre><code>_________________________________________________________________\nLayer (type)                    Output Shape        Param #   \n=================================================================\nInput (InputLayer)              (32, 32, 3)         0             \n_________________________________________________________________\nConv1_1 (Conv2D)                (32, 32, 64)        1792          \nbn1_1 (BatchNormalization)      (32, 32, 64)        256           \nConv1_2 (Conv2D)                (32, 32, 64)        36928         \nbn1_2 (BatchNormalization)      (32, 32, 64)        256           \npool1 (MaxPooling2D)            (16, 16, 64)        0             \n_________________________________________________________________\nConv2_1 (Conv2D)                (16, 16, 128        73856         \nbn2_1 (BatchNormalization)      (16, 16, 128        512           \nConv2_2 (Conv2D)                (16, 16, 128        147584    \nbn2_2 (BatchNormalization)      (16, 16, 128        512           \npool2 (MaxPooling2D)            (8, 8, 128)         0             \n_________________________________________________________________\nConv3_1 (Conv2D)                (8, 8, 256)         295168    \nbn3_1 (BatchNormalization)      (8, 8, 256)         1024          \nConv3_2 (Conv2D)                (8, 8, 256)         590080    \nbn3_2 (BatchNormalization)      (8, 8, 256)         1024          \nConv3_3 (Conv2D)                (8, 8, 256)         590080    \nbn3_3 (BatchNormalization)      (8, 8, 256)         1024          \n_________________________________________________________________\nflatten (Flatten)               (16384)             0             \nfc1 (Dense)                     (100)               1638500   \nfc2 (Dense)                     (10)                1010          \n=================================================================\nTotal params: 3,379,606\nTrainable params: 3,377,302\nNon-trainable params: 2,304\n_________________________________________________________________\n</code></pre>"},{"location":"colearn/tasks/#122-cifar10conv2-keras-model","title":"1.2.2. CIFAR10Conv2 Keras model","text":"<pre><code>_________________________________________________________\nLayer (type)                Output Shape        Param #   \n=========================================================\nInput (InputLayer)          (32, 32, 3)         0             \n_________________________________________________________\nConv1_1 (Conv2D)            (32, 32, 32)        896           \nConv1_2 (Conv2D)            (32, 32, 32)        9248          \npool1 (MaxPooling2D)        (16, 16, 32)        0             \n_________________________________________________________\nConv2_1 (Conv2D)            (16, 16, 64)        18496         \nConv2_2 (Conv2D)            (16, 16, 64)        36928         \npool2 (MaxPooling2D)        (8, 8, 64)          0             \n_________________________________________________________\nConv3_1 (Conv2D)            (8, 8, 128)         73856         \nConv3_2 (Conv2D)            (8, 8, 128)         147584    \npool3 (MaxPooling2D)        (4, 4, 128)         0             \n_________________________________________________________\nflatten (Flatten)           (2048)              0             \nfc1 (Dense)                 (128)               262272    \nfc2 (Dense)                 (10)                1290          \n=========================================================\nTotal params: 550,570\nTrainable params: 550,570\nNon-trainable params: 0\n____
…
>"},{"location":"colearn/tasks/#412-requirements","title":"4.1.2 Requirements","text":"<ul> <li>MNIST dataset is loaded from tensorflow.keras.datasets.cifar10 and no stored data are required</li> </ul>"},{"location":"colearn/tasks/#42-models","title":"4.2. Models","text":""},{"location":"colearn/tasks/#421-mnistconv-keras-model","title":"4.2.1. MNISTConv Keras model","text":"<pre><code>_________________________________________________________\nLayer (type)                   Output Shape       Param #   \n=========================================================\nInput (InputLayer)             (28, 28, 1)        0             \n_________________________________________________________\nConv1_1 (Conv2D)               (28, 28, 64)       640           \nbn1 (BatchNormalization)       (28, 28, 64)       256           \npool1 (MaxPooling2D)           (14, 14, 64)       0             \n_________________________________________________________\nConv2_1 (Conv2D)               (14, 14, 128)      73856         \nbn4 (BatchNormalization)       (14, 14, 128)      512           \npool2 (MaxPooling2D)           (7, 7, 128)        0             \n_________________________________________________________\nflatten (Flatten)              (6272)             0             \nfc1 (Dense)                    (10)               62730         \n=========================================================\nTotal params: 137,994\nTrainable params: 137,610\nNon-trainable params: 384\n_________________________________________________________\n</code></pre>"},{"location":"colearn/tasks/#422-mnist-pytorch-model","title":"4.2.2. MNIST Pytorch model","text":"<pre><code>---------------------------------------------------------\nLayer (type)           Output Shape             Param #\n=========================================================\nInput                  [28,28,1]                0\nConv2d-1               [20, 24, 24]             520\nConv2d-2               [50, 8, 8]               25,050\nLinear-3               [500]                    400,500\nLinear-4               [10]                     5,010\n=========================================================\nTotal params: 431,080\nTrainable params: 431,080\nNon-trainable params: 0\n---------------------------------------------------------\n</code></pre>"},{"location":"colearn/tasks/#423-mnistsupermini-keras-model","title":"4.2.3. MNISTSupermini Keras model","text":"<pre><code>________________________________________________________________________________________\nLayer (type)                Output Shape    Param #      Connected to                         \n========================================================================================\ninput_1 (InputLayer)        (28, 28, 1)     0                                                \n________________________________________________________________________________________\nconv2d (Conv2D)             (26, 26, 8)     80           input_1[0][0]                        \nBatch_normalization         (26, 26, 8)     32           conv2d[0][0]                         \nMax_pooling2d               (13, 13, 8)     0            batch_normalization[0][0]            \ndropout (Dropout)           (13, 13, 8)     0            max_pooling2d[0][0]                  \n________________________________________________________________________________________\nSeparable_conv2d            (11, 11, 26)    306          dropout[0][0]                        \nbatch_normalization_1       (11, 11, 26)    104          separable_conv2d[0][0]               \ndropout_1 (Dropout)         (11, 11, 26)    0            batch_normalization_1[0][0]          \n________________________________________________________________________________________\nSeparable_conv2d_1          (11, 11, 26)    936          dropout_1[0][0]                      \n                                                         dropout_2[0][0]                      \n                                                         dropout_3[0][0]                      \n________________________________________________________________________________________\nBatch_normalization_2        (11, 11, 26)   104          separable_conv2d_1[0][0]             \ndropout_2 (Dropout)          (11, 11, 26)   0            batch_normalization_2[0][0]          \n________________________________________________________________________________________\nBatch_normalization_3        (11, 11, 26)   104          separable_conv2d_1[1][0]             \ndropout_3 (Dropout)          (11, 11, 26)   0            batch_normalization_3[0][0]          \n________________________________________________________________________________________\nBatch_normalization_4        (11, 11, 26)   104          separable_conv2d_1[2][0]             \ndropout_4 (Dropout)          (11, 11, 26)   0            batch_normalization_4[0][0]          \n________________________________________________________________________________________\nGlobal_average_pooling2d     (26)           0            dropout_4[0][0]                      \ndense (Dense)                (16)           432          global_average_pooling2d[0][0]   \nBatch_normalization_5        (16)           64           dense[0][0]   
…
oad dataset: here</li> </ul>"},{"location":"colearn/tasks/#52-models","title":"5.2. Models","text":""},{"location":"colearn/tasks/#521-xraysupermini-keras-model","title":"5.2.1. XraySupermini Keras model","text":"<pre><code>_________________________________________________________________\nLayer (type)                     Output Shape            Param #   \n=================================================================\nInput (InputLayer)               [(128, 128, 1)]         0             \n_________________________________________________________________\nConv1_1 (Conv2D)                 (128, 128, 32)          320           \n_________________________________________________________________\nbn1 (BatchNormalization)         (128, 128, 32)          128           \n_________________________________________________________________\npool1 (MaxPooling2D)             (32, 32, 32)            0             \n_________________________________________________________________\nConv2_1 (Conv2D)                 (32, 32, 64)            18496         \n_________________________________________________________________\nbn2 (BatchNormalization)         (32, 32, 64)            256           \n_________________________________________________________________\nGlobal_max_pooling2d             (64)                    0             \n_________________________________________________________________\nfc1 (Dense)                      (1)                     65            \n=================================================================\nTotal params: 19,265\nTrainable params: 
…
====\nTotal params: 23,583,489\nTrainable params: 23,530,369\nNon-trainable params: 53,120\n_________________________________________________________________\n</code></pre>"},{"location":"colearn/tasks/#523-xraypretrainedresnet50-keras-model","title":"5.2.3. XrayPretrainedResnet50 Keras model","text":"<pre><code>_____________________________________________________________________________________\nLayer (type)                Output Shape    Param #   Connected to                \n=====================================================================================\nInput (InputLayer)          (128, 128, 1)   0                                       \n_____________________________________________________________________________________\nconcatenate (Concatenate)   (128, 128, 3)   0         Input[0][0]                                                                                     Input[0][0]                                                                                    Input[0][0]                 \n_____________________________________________________________________________________\ntf_op_layer_mul             (128, 128, 3)  0          concatenate[0][0]           \ntf_op_layer_strided_slice   (128, 128, 3)  0          tf_op_layer_mul[0][0]       \ntf_op_layer_BiasAdd         (128, 128, 3)  0          tf_op_layer_strided_slice[0][0]  \n_____________________________________________________________________________________\nresnet50 (Model)            (4, 4, 2048)   23587712   tf_op_layer_BiasAdd[0][0]            \n_____________________________________________________________________________________\nglobal_average_pooling2d    (2048)         0          resnet50[1][0]              \nflatten (Flatten)           (2048)         0          global_average_pooling2d[0][0]   \n_____________________________________________________________________________________\nfc1 (Dense)
…
20\n_____________________________________________________________________________________\n</code></pre>"},{"location":"colearn/tasks/#524-xraydropout-keras-model","title":"5.2.4. XrayDropout Keras model","text":"<pre><code>_________________________________________________________________\nLayer (type)                     Output Shape            Param #   \n=================================================================\nInput (InputLayer)               [(128, 128, 1)]         0             \n_________________________________________________________________\nConv1_1 (Conv2D)                 (128, 128, 128)         1280          \nbn1 (BatchNormalization)         (128, 128, 128)         512           \npool1 (MaxPooling2D)             (32, 32, 128)           0             \n_________________________________________________________________\nConv2_1 (Conv2D)                 (32, 32, 256)           295168    \nbn2 (BatchNormalization)         (32, 32, 256)           1024          \npool2 (MaxPooling2D)             (8, 8, 256)             0             \n_________________________________________________________________\nflatten (Flatten)                (16384)                 0             \nfc1 (Dense)                      (128)                   2097280   \nbn3 (BatchNormalization)         (128)                   512           \ndropout (Dropout)                (128)                   0             \n______________________________
…
          \n=================================================================\nTotal params: 2,404,353\nTrainable params: 2,403,201\nNon-trainable params: 1,152\n_________________________________________________________________\n</code></pre>"},{"location":"colearn/tasks/#525-xraydropout2-keras-model","title":"5.2.5. XrayDropout2 Keras model","text":"<pre><code>_________________________________________________________________\nLayer (type)                     Output Shape            Param #   \n=================================================================\nInput (InputLayer)               (128, 128, 1)           0             \n_________________________________________________________________\nConv1_1 (Conv2D)                 (128, 128, 64)          640           \nbn1 (BatchNormalization)         (128, 128, 64)          256           \npool1 (MaxPooling2D)             (64, 64, 64)            0             \n_________________________________________________________________\nConv2_1 (Conv2D)                 (64, 64, 128)           73856         \nbn2 (BatchNormalization)         (64, 64, 128)           512           \npool2 (MaxPooling2D)             (32, 32, 128)           0             \n_________________________________________________________________\nConv3_1 (Conv2D)                 (32, 32, 256)           295168    \nbn3 (BatchNormalization)         (32, 32, 256)           1024          \npool3 (MaxPooling2D)             (16, 16, 256)           0             \n_________________________________________________________________\nConv4_1 (Conv2D)                 (16, 16, 512)           1180160   \nbn4 (BatchNormalization)         (16, 16, 512)           2048          \npool4 (MaxPooling2D)             (8, 8, 512)             0             \n_________________________________________________________________\nConv5_1 (Conv2D)                 (8, 8, 512)             2359808   \nbn5 (BatchNormalization)         (8, 8, 512)             2048          \npool5 (MaxPooling2D)             (4, 4, 512)             0             \n_________________________________________________________________\nflatten (Flatten)                (8192)                  0             \nfc1 (Dense)                      (256)                   2097408   \nbn6 (BatchNormalization)         (256)                   1024          \ndropout (Dropout)                (256)                   0             \n______________________________
…
=============================\nTotal params: 6,055,937\nTrainable params: 6,052,097\nNon-trainable params: 3,840\n_________________________________________________________________\n</code></pre>"},{"location":"colearn/tasks/#526-xrayvgg16-keras-model","title":"5.2.6. XrayVGG16 Keras model","text":"<pre><code>_____________________________________________________________________________________\nLayer (type)                 Output Shape     Param #    Connected to                \n=====================================================================================\nInput (InputLayer)           (128, 128, 1)    0                  \n_____________________________________________________________________________________\nconcatenate (Concatenate)    (128, 128, 3)    0          Input[0][0]                 \n                                                         Input[0][0]                 \n                                                         Input[0][0]                 \n_____________________________________________________________________________________\ntf_op_layer_mul               (128, 128, 3)    0         concatenate[0][0]           \nTf_op_layer_strided_slice     (28, 128, 3)     0         tf_op_layer_mul[0][0]       \ntf_op_layer_BiasAdd           (128, 128, 3)    0         tf_op_layer_strided_slice[0][0]  \n_____________________________________________________________________________________\nvgg16 (Model)                 (4, 4, 512)      14714688  tf_op_layer_BiasAdd[0][0]            \n_____________________________________________________________________________________\nflatten (Flatten)             (8192)           0         vgg16[1][0]                  \nfc1 (Dense)                   (1)              8193      flatten[0][0]                \n=====================================================================================\nTotal par
…
arams: 0\n_____________________________________________________________________________________\n</code></pre>"},{"location":"colearn/tasks/#527-xraymini-keras-model","title":"5.2.7. XrayMini Keras model","text":"<pre><code>_________________________________________________________________\nLayer (type)                     Output Shape            Param #   \n=================================================================\nInput (InputLayer)               [(128, 128, 1)]         0             \n_________________________________________________________________\nConv1_1 (Conv2D)                 (128, 128, 128)         1280          \nbn1 (BatchNormalization)         (128, 128, 128)         512           \npool1 (MaxPooling2D)             (32, 32, 128)           0             \n_________________________________________________________________\nConv2_1 (Conv2D)                 (32, 32, 256)           295168    \nbn2 (BatchNormalization)         (32, 32, 256)           1024          \npool2 (MaxPooling2D)             (8, 8, 256)             0             \n_________________________________________________________________\nflatten (Flatten)                (16384)                 0             \nfc1 (Dense)                      (1)                     16385         \n=================================================================\nTotal params: 314,369\nTrainable params: 313,601\nNon-trainable params: 768\n_________________________________________________________________\n</code></pre>"},{"location":"colearn/tasks/#527-xrayonemb-keras-model","title":"5.2.7. XrayOneMB Keras model","text":"<pre><code>_________________________________________________________________\nLayer (type)                   Output Shape            Param #   \n=================================================================\nInput (InputLayer)             (128, 128, 1)           0             \n_________________________________________________________________\nConv1_1 (Conv2D)               (128, 128, 64)          640           \nbn1_1 (BatchNormalization)     (128, 128, 64)          256           \nConv1_2 (Conv2D)               (128, 128, 64)          36928         \nbn1_2 (BatchNormalization)     (128, 128, 64)          256           \npool1 (MaxPooling2D)           (64, 64, 64)            0             \n_________________________________________________________________\nConv2_1 (Conv2D)               (64, 64, 64)            36928         \nbn2_1 (BatchNormalization)     (64, 64, 64)            256           \nConv2_2 (Conv2D)               (64, 64, 64)            36928         \nbn2_2 (BatchNormalization)     (64, 64, 64)            256           \npool2 (MaxPooling2D)           (32, 32, 64)            0             \n_________________________________________________________________\nConv3_1 (Conv2D)               (32, 32, 128)           73856         \nbn3_1 (BatchNormalization)     (32, 32, 128)           512           \nConv3_2 (SeparableConv2D)      (32, 32, 128)           17664         \nbn3_2 (BatchNormalization)     (32, 32, 128)           512           \npool3 (MaxPooling2D)           (16, 16, 128)           0             \n_________________________________________________________________\nConv4_1 (SeparableConv2D)      (16, 16, 128)           17664         \nbn4_1 (BatchNormalization)     (16, 16, 128)           512           \n_________________________________________________________________\nConv4_2 (SeparableConv2D)      (16, 16, 128)           17664         \nbn4_2 (BatchNormalization)     (16, 16, 128)           512           \n_________________________________________________________________\npool4 (AveragePooling2D)       (4, 4, 128)             0             \nflatten (Flatten)              (2048)                  0             \n_________________________________________________________________\nfc1 (Dense)                    (1)                     2049          \n=================================================================\nTotal params: 243,393\nTrainable params: 241,857\nNon-trainable params: 1,536\n______________________________
…
